activate torch environment
mlp Activated Successfully

20230520-08:36:55
running: cuda, 	epoch: 150, 	batch: 64, 	lr: 0.008
----------------------------------------------------------------
        Layer (type)               Output Shape         Param #
================================================================
            Conv2d-1         [-1, 64, 128, 128]           1,792
              ReLU-2         [-1, 64, 128, 128]               0
            Conv2d-3         [-1, 64, 128, 128]          36,928
       BatchNorm2d-4         [-1, 64, 128, 128]             128
              ReLU-5         [-1, 64, 128, 128]               0
            Conv2d-6         [-1, 64, 128, 128]          36,928
       BatchNorm2d-7         [-1, 64, 128, 128]             128
              ReLU-8         [-1, 64, 128, 128]               0
            Conv2d-9         [-1, 64, 128, 128]          36,928
      BatchNorm2d-10         [-1, 64, 128, 128]             128
             ReLU-11         [-1, 64, 128, 128]               0
           Conv2d-12         [-1, 64, 128, 128]          36,928
      BatchNorm2d-13         [-1, 64, 128, 128]             128
             ReLU-14         [-1, 64, 128, 128]               0
           Conv2d-15         [-1, 64, 128, 128]          36,928
      BatchNorm2d-16         [-1, 64, 128, 128]             128
             ReLU-17         [-1, 64, 128, 128]               0
           Conv2d-18         [-1, 64, 128, 128]          36,928
      BatchNorm2d-19         [-1, 64, 128, 128]             128
             ReLU-20         [-1, 64, 128, 128]               0
           Conv2d-21         [-1, 64, 128, 128]          36,928
      BatchNorm2d-22         [-1, 64, 128, 128]             128
             ReLU-23         [-1, 64, 128, 128]               0
           Conv2d-24         [-1, 64, 128, 128]          36,928
      BatchNorm2d-25         [-1, 64, 128, 128]             128
             ReLU-26         [-1, 64, 128, 128]               0
           Conv2d-27         [-1, 64, 128, 128]          36,928
      BatchNorm2d-28         [-1, 64, 128, 128]             128
             ReLU-29         [-1, 64, 128, 128]               0
           Conv2d-30         [-1, 64, 128, 128]          36,928
      BatchNorm2d-31         [-1, 64, 128, 128]             128
             ReLU-32         [-1, 64, 128, 128]               0
           Conv2d-33         [-1, 64, 128, 128]          36,928
      BatchNorm2d-34         [-1, 64, 128, 128]             128
             ReLU-35         [-1, 64, 128, 128]               0
           Conv2d-36         [-1, 64, 128, 128]          36,928
      BatchNorm2d-37         [-1, 64, 128, 128]             128
             ReLU-38         [-1, 64, 128, 128]               0
           Conv2d-39         [-1, 64, 128, 128]          36,928
      BatchNorm2d-40         [-1, 64, 128, 128]             128
             ReLU-41         [-1, 64, 128, 128]               0
           Conv2d-42         [-1, 64, 128, 128]          36,928
      BatchNorm2d-43         [-1, 64, 128, 128]             128
             ReLU-44         [-1, 64, 128, 128]               0
           Conv2d-45         [-1, 64, 128, 128]          36,928
      BatchNorm2d-46         [-1, 64, 128, 128]             128
             ReLU-47         [-1, 64, 128, 128]               0
           Conv2d-48          [-1, 3, 128, 128]           1,731
================================================================
Total params: 559,363
Trainable params: 559,363
Non-trainable params: 0
----------------------------------------------------------------
Input size (MB): 0.19
Forward/backward pass size (MB): 376.38
Params size (MB): 2.13
Estimated Total Size (MB): 378.70
----------------------------------------------------------------
None
모델 학습 시작
…
